…
2019-02-02 15:21:12.977424: I tensorflow/core/common_runtime/gpu/gpu_device.cc:1097] Created TensorFlow device (/job:localhost/replica:0/task:0/device:GPU:0 with 10405 MB memory) -> physical GPU (device: 0, name: GeForce GTX 1080 Ti, pci bus id: 0000:02:00.0, compute capability: 6.1)
2019-02-02 15:21:13.026545: I tensorflow/core/common_runtime/gpu/gpu_device.cc:1097] Created TensorFlow device (/job:localhost/replica:0/task:0/device:GPU:1 with 5607 MB memory) -> physical GPU (device: 1, name: GeForce GTX 980 Ti, pci bus id: 0000:01:00.0, compute capability: 5.2)
_________________________________________________________________
Layer (type)                 Output Shape              Param #   
=================================================================
input_1 (InputLayer)         (None, 60)                0         
_________________________________________________________________
embedding_1 (Embedding)      (None, 60, 50)            20000050  
_________________________________________________________________
lstm_1 (LSTM)                (None, 60, 6)             1368      
_________________________________________________________________
dropout_1 (Dropout)          (None, 60, 6)             0         
_________________________________________________________________
lstm_2 (LSTM)                (None, 6)                 312       
_________________________________________________________________
dropout_2 (Dropout)          (None, 6)                 0         
_________________________________________________________________
dense_1 (Dense)              (None, 1)                 7         
_________________________________________________________________
activation_1 (Activation)    (None, 1)                 0         
=================================================================
Total params: 20,001,737
Trainable params: 1,687
Non-trainable params: 20,000,050
_________________________________________________________________
(223982, 60)
Train on 156787 samples, validate on 67195 samples
Epoch 1/20
 - 753s - loss: 0.4303 - acc: 0.8104 - val_loss: 0.2905 - val_acc: 0.8795
Epoch 2/20
 - 735s - loss: 0.3255 - acc: 0.8710 - val_loss: 0.2677 - val_acc: 0.8885
…
